driver-fingerprint/results/integration_Q5/model.pth (torch, 51118 bytes, 7 tensors)

emb.weight f4 [3, 16]
-0.7901263 0.36229885 0.8652605 -1.2989261 -0.18236141 0.28907412 -0.585988 -0.84291816
0.84626544 -0.54829216 -1.1506141 -0.39046544 0.6935078 0.91741705 0.23712467 0.98605055
-1.4890682 -0.30262968 1.8388773 -0.33610818 0.18747945 0.77184504 0.96199745 -0.73022115
-0.21275993 -0.20412365 -1.7647257 -0.36297116 -1.9448613 0.7154348 -1.2767613 -1.2484661
-0.09812058 -0.13990308 0.19243641 2.2169907 0.87458956 -0.65221596 -0.83233494 -0.56333107
-1.3792794 1.1947324 1.584502 -0.96254057 -0.2470862 -0.26111442 0.5009447 0.22135885
00000000: b845 4abf 3c7f b93e b681 5d3f 3643 a6bf
00000010: f3bc 3abe 8601 943e 4f03 16bf 7cc9 57bf
00000020: daa4 583f e05c 0cbf 5347 93bf 16eb c7be
00000030: ba89 313f d8db 6a3f cfd0 723e cf6d 7c3f
00000040: c999 bebf 47f2 9abe 5560 eb3f 5f16 acbe
00000050: 9dfa 3f3e a397 453f 7745 763f c6ef 3abf
00000060: bddd 59be ca05 51be 88e2 e1bf 5bd7 b9be
00000070: 37f1 f8bf bc26 373f ea6c a3bf bdcd 9fbf
00000080: 71f3 c8bd c142 0fbe 0d0e 453e 2de3 0d40
00000090: 1ae5 5f3f a0f7 26bf e713 55bf 7736 10bf
000000a0: 3a8c b0bf feec 983f f6d0 ca3f 0f69 76bf
000000b0: 2a04 7dbe cab0 85be e93d 003f e5ab 623e

net.0.weight f4 [96, 22]
0.15673117 -0.2754573 -0.2267059 0.18430592 0.09679996 0.09211066 -0.14850605 -0.014707569
-0.11741935 0.028709743 0.1200796 0.075876996 -0.017753905 0.04104048 0.031055974 -0.13808672
-0.05166987 0.013299726 -0.12303866 -0.12036611 0.07323278 0.106370546 0.14566688 -0.2240097
0.25105795 -0.16376609 -0.14773291 0.49887273 0.03402675 0.05837884 0.07438556 -0.07961793
0.16286404 -0.16966902 -0.0798249 -0.042467926 -0.057883393 -0.07409598 0.12344869 0.11967244
0.031422596 0.21028712 -0.13650465 -0.09471362 0.0044513666 -0.05058201 -0.28037682 -0.10916894
-0.055715438 0.29042962 0.09723979 0.089481674 -0.15702023 -0.15464671 -0.076202124 0.028007371
0.009095044 -0.10903731 0.08055115 -0.02443873 -0.1166906 0.12428415 -0.09962785 0.10569109
0.017922143 -0.05203607 -0.0016536345 -0.21739382 -0.17237547 -0.066677466 -0.14249991 0.19020726
0.050685175 -0.11640984 0.13245665 -0.07265077 0.091614276 -0.09076479 -0.1981373 -0.14248034
0.04018511 0.1289791 -0.09761911 -0.09917252 -0.21660702 0.090078935 0.18848126 0.055000238
-0.184359 0.06912609 0.32624733 -0.11017772 0.026717363 0.1306882 -0.014516019 -0.07716663
-0.15316954 -0.16334371 0.025712688 0.034952544 0.1955553 -0.018846067 -0.04977076 -0.22335719
-0.23331417 0.06255453 0.15951124 0.020648828 -0.22336191 0.058470827 0.13294683 -0.083261564
0.039627332 0.009339967 -0.18788707 -0.27924484 0.111602746 -0.1410095 -0.073214225 -0.12164482
0.11518976 0.019244399 0.0574002 -0.13782097 0.19892216 0.014687772 -0.102149315 -0.0096608605
-0.11317565 -0.012967988 0.15271534 -0.054847047 0.1436743 0.09212403 0.07884001 0.062006425
-0.111185126 -0.13873872 -0.09535666 0.11036518 0.08734974 0.07326377 0.097581916 0.19120333
0.21851212 -0.15255827 0.055815782 -0.022527551 0.09536804 0.0047556395 0.07286634 -0.23491849
0.10702575 0.18979664 -0.038952697 -0.1781818 -0.2318192 -0.033418793 -0.106162585 0.14877582
0.033855308 0.1701837 -0.049138285 0.037710663 -0.13591407 0.22428684 0.0952826 -0.011337329
0.16529162 0.051538203 0.020142453 -0.039288454 0.036059972 0.030204352 -0.13316624 0.0056457445
0.026029108 -0.17781086 0.15160269 -0.05239582 -0.18856205 -0.23099513 -0.13475432 0.10856326
0.09443147 0.17764989 0.17883214 0.060609534 0.0648653 -0.0069198874 0.20660974 -0.09367538
-0.040909104 -0.04378034 -0.085880704 -0.17725997 0.0002474346 0.22789666 -0.13693471 -0.35326666
-0.033908684 0.20697768 0.046428785 0.10310529 -0.072015926 0.19151054 -0.1945427 0.08133567
0.029493058 0.17721851 -0.08395852 -0.066374235 -0.055468783 0.16757397 -0.07214125 -0.18444215
0.10025368 0.0647867 -0.00010795987 -0.15633294 -0.21284658 0.1596939 -0.2826311 -0.033521228
0.12178755 0.24778387 -0.1371565 -0.044795368 -0.15498994 -0.082827486 0.14652891 0.07517583
0.024030147 0.17160779 -0.14855632 0.029555103 -0.12264773 -0.023963211 -0.12327144 -0.232122
0.19801885 -0.01861618 0.02012041 -0.0876808 -0.25956756 0.021330096 -0.058747627 0.28635308
-0.13077447 0.15428989 -0.059472974 0.123995006 0.17864133 0.049577747 -0.045584608 0.14994232
00000000: 237e 203e bd08 8dbe 9725 68be b1ba 3c3e
00000010: 0f3f c63d 84a4 bc3d f811 18be 04f8 70bc
00000020: 8e79 f0bd b230 eb3c 4bec f53d 6665 9b3d
00000030: a370 91bc 101a 283d 1969 fe3c 9b66 0dbe
00000040: c9a3 53bd 18e7 593c b1fb fbbd 8282 f6bd
00000050: 11fb 953d cdd8 d93d b329 153e cc62 65be
00000060: ab8a 803e 4cb2 27be 4c47 17be 3f6c ff3e
00000070: a25f 0b3d a71e 6f3d 7557 983d ba0e a3bd
00000080: d5c5 263e b7bd 2dbe 3d7b a3bd d9f2 2dbd
00000090: 2317 6dbd a2bf 97bd abd2 fc3d d316 f53d
000000a0: fbb4 003d 8255 573e e0c7 0bbe 37f9 c1bd
000000b0: c5dc 913b 152f 4fbd 8d8d 8fbe f793 dfbd
000000c0: df35 64bd 31b3 943e a825 c73d 2b42 b73d
000000d0: e9c9 20be b55b 1ebe dc0f 9cbd b76f e53c
000000e0: 6103 153c f44e dfbd 00f8 a43d bb33 c8bc
000000f0: 7bfb eebd b088 fe3d b009 ccbd 9274 d83d
00000100: 75d1 923c c623 55bd c4be d8ba 7c9c 5ebe
00000110: 3283 30be 328e 88bd 7feb 11be b1c5 423e
00000120: 429b 4f3d 4868 eebd b7a2 073e edc9 94bd
00000130: 44a0 bb3d e4e2 b9bd 81e4 4abe 5ee6 11be
00000140: 2499 243d 1913 043e 87ec c7bd f61a cbbd
00000150: 3bce 5dbe 4e7b b83d 3b01 413e ee47 613d
00000160: 9bc8 3cbe fb91 8d3d e409 a73e dba4 e1bd
00000170: 5fde da3c 21d3 053e 99d4 6dbc 8a09 9ebd
00000180: 7ad8 1cbe 9343 27be 6aa3 d23c 662a 0f3d
00000190: a63f 483e 1163 9abc 6ddc 4bbd bfb7 64be
000001a0: e9e9 6ebe 971c 803d ea56 233e bb27 a93c
000001b0: fcb8 64be 1b7f 6f3d 3723 083e 0a85 aabd
000001c0: 4550 223d a906 193c 7865 40be 2ef9 8ebe
000001d0: fb8f e43d cb64 10be 57f1 95bd eb20 f9bd
000001e0: 9ce8 eb3d 6ea6 9d3c 791c 6b3d f120 0dbe
000001f0: 40b2 4b3e fba4 703c a933 d1bd 9648 1ebc
00000200: a3c8 e7bd af77 54bc 6961 1c3e 4ca7 60bd
00000210: 5b1f 133e 86ab bc3d df76 a13d 73fa 7d3d
00000220: 07b5 e3bd 8611 0ebe 5a4a c3bd 2407 e23d
00000230: 6ce4 b23d 510b 963d 07d9 c73d ceca 433e
00000240: a4c1 5f3e 3c38 1cbe 179f 643d b38b b8bc
00000250: 5250 c33d 32d5 9b3b f33a 953d 798e 70be
00000260: 5130 db3d 0d5a 423e dd8c 1fbd 4a75 36be
00000270: 0362 6dbe 25e2 08bd c56b d9bd b058 183e
00000280: ddab 0a3d a344 2e3e 3a45 49bd 7f76 1a3d
00000290: 0f2d 0bbe 73ab 653e 8623 c33d 34c0 39bc
000002a0: 3542 293e b919 533d c901 a53c eeec 20bd
000002b0: 9fb3 133d 1e6f f73c bb5c 08be f0ff b83b
000002c0: ff3a d53c 0d14 36be bc3d 1b3e 009d 56bd
000002d0: 6916 41be fd89 6cbe 09fd 09be 6a56 de3d
000002e0: 4965 c13d dae9 353e c61f 373e b441 783d
000002f0: 19d8 843d 39c0 e2bb 8191 533e e1d8 bfbd
00000300: 4e90 27bd 0453 33bd 39e2 afbd a383 35be
00000310: 1cba 8139 be5d 693e 9d38 0cbe 5edf b4be
00000320: d5e3 0abd f5f1 533e 1c2c 3e3d de28 d33d
00000330: 167d 93bd 571b 443e 3436 47be 5193 a63d
00000340: 6d9b f13c c578 353e 72f2 abbd 37ef 87bd
00000350: 3c33 63bd 8398 2b3e cbbe 93bd 67de 3cbe
00000360: cd51 cd3d e4ae 843d 8468 e2b8 be15 20be
00000370: 74f4 59be cc86 233e 06b5 90be 8e4d 09bd
00000380: c06b f93d 0ebb 7d3e c172 0cbe 597b 37bd
00000390: afb5 1ebe 75a1 a9bd ad0b 163e c9f5 993d
000003a0: dfda c43c f4b9 2f3e 261f 18be 8b1d f23c
000003b0: bc2e fbbd 7f4e c4bc bd75 fcbd 64b1 6dbe
000003c0: 74c5 4a3e f680 98bc 8fd3 a43c fe91 b3bd
000003d0: 0ae6 84be 74bc ae3c 5aa1 70bd df9c 923e
000003e0: bee9 05be 2bfe 1d3e ef99 73bd 18f1 fd3d
000003f0: c1ed 363e 0912 4b3d edb6 3abd 7b8a 193e

net.0.bias f4 [96]
0.1107698 0.16151914 0.14725162 -0.0078765405 -0.08970154 -0.16969852 -0.05353761 0.16124393
0.051676646 0.07068053 0.04545488 -0.17974101 -0.035252802 -0.1563653 -0.19313079 0.12069611
0.14061254 0.0045940485 -0.124420375 0.040747754 -0.1587465 -0.12586412 0.058873754 0.010228371
0.028693262 0.14634688 0.1537356 0.02249843 0.14000922 -0.16053234 0.175402 -0.20057125
-0.075608544 0.09801461 -0.010643504 -0.1569773 0.054055043 0.15535584 0.061032295 0.146186
0.0050019105 0.047245942 -0.11557046 0.03584949 0.01802347 -0.15770444 0.057988726 -0.045846935
-0.0851237 -0.18559274 0.100789495 0.1571349 0.1732758 0.13603753 -0.18184927 0.16728374
0.239136 0.09940609 0.13414066 0.11077162 0.11081455 0.023727482 -0.1457267 0.03195044
-0.15190783 0.18443394 0.19807492 -0.0657062 0.18081653 -0.03952072 -0.089491114 0.08118579
0.15777318 0.17180952 0.14026934 0.20143367 0.10086719 0.15493593 -0.1939073 -0.0993149
-0.04139625 0.11753004 -0.059644483 0.12224261 -0.16963847 -0.106745735 -0.0043584136 0.03185868
0.059772164 0.052590873 0.12401881 -0.01803821 0.13553286 0.15738684 -0.022067018 -0.20640194
00000000: 47db e23d 4665 253e 21c9 163e 9b0c 01bc
00000010: 71b5 b7bd 73c5 2dbe 414a 5bbd 211d 253e
00000020: e4aa 533d f4c0 903d e52e 3a3d 070e 38be
00000030: 3e65 10bd 3a1e 20be 14c4 45be 862f f73d
00000040: bcfc 0f3e ac89 963b 1cd0 febd 1ee7 263d
00000050: 718e 22be 86e2 00be 9b25 713d e694 273c
00000060: 220e eb3c f5db 153e dd6c 1d3e a14e b83c
00000070: 945e 0f3e 9762 24be 959c 333e 8d62 4dbe
00000080: a7d8 9abd e2bb c83d 1762 2ebc a8be 20be
00000090: d268 5d3d 9a15 1f3e 00fd 793d c8b1 153e
000000a0: 11e7 a33b f684 413d 35b0 ecbd ead6 123d
000000b0: f5a5 933c 467d 21be 9685 6d3d ffc9 3bbd
000000c0: 5655 aebd 060c 3ebe b96a ce3d f9e7 203e
000000d0: 366f 313e 6c4d 0b3e b236 3abe 6e4c 2b3e
000000e0: 11e0 743e 6c95 cb3d 2b5c 093e 3bdc e23d
000000f0: bdf2 e23d 2360 c23c 6139 15be 77de 023d
00000100: ba8d 1bbe 40dc 3c3e 27d4 4a3e f990 86bd
00000110: f827 393e 7ae0 21bd 1e47 b7bd bc44 a63d
00000120: 4b8f 213e d6ee 2f3e c4a2 0f3e a144 4e3e
00000130: 7593 ce3d 86a7 1e3e a38f 46be 9c65 cbbd
00000140: 1d8f 29bd 97b3 f03d c64d 74bd 555a fa3d
00000150: b5b5 2dbe 829d dabd 06d1 8ebb 3f7e 023d
00000160: a8d3 743d 8769 573d 93fd fd3d dec4 93bc
00000170: 20c9 0a3e 042a 213e e4c5 b4bc 085b 53be

net.3.weight f4 [96, 96]
0.03745684 0.08429478 0.0693857 -0.03451432 -0.00442824 0.0057043857 0.05601716 -0.007839957
0.13483304 0.031241428 0.028546324 -0.1524828 0.11330506 0.025382455 -0.06333847 0.059657224
-0.035818417 -0.06356883 -0.031044153 0.10599903 0.11246545 0.10391246 -0.013379415 -0.08233613
-0.013888899 -0.08401734 -0.15391539 -0.06346214 0.08612469 -0.09208011 0.110842906 -0.035534512
0.08176202 0.03264821 -0.00699374 -0.06846271 -0.012657015 0.121968344 -0.11187822 -0.037585944
0.0868482 0.0775009 -0.013438443 0.038695276 0.12503983 0.09688583 0.12177964 0.01876428
0.03920036 -0.085337184 0.011917915 0.09899098 -0.051566843 -0.009405897 -0.065034814 0.09295917
0.059311748 -0.05405442 0.07058522 0.044161465 0.08070584 0.031399805 0.08238171 0.084962234
-0.0045992834 0.08917513 -0.067686416 0.09032555 0.036047608 0.0345723 0.0027213255 -0.052849047
0.051491905 0.03731158 0.07097463 0.07306727 -0.004064862 -0.014204737 -0.102843985 -0.0741735
-0.059181236 -0.06814451 -0.056862976 0.022859931 0.06344685 0.031038884 0.06907237 -0.17465113
0.066635475 0.17034845 0.09076125 -0.025934102 -0.008904833 0.021435019 -0.04019879 0.03377844
-0.0596681 0.0908631 -0.05067501 0.06494513 0.12389855 0.07942734 0.03303463 -0.030185599
0.14455381 -0.023781689 -0.07844669 -0.11739957 -0.068106666 -0.06064189 -0.022273516 -0.09699319
-0.061782528 0.07961014 -0.015996974 0.09065155 -0.05979847 0.07377861 0.110838845 0.06947495
-0.11584789 -0.09842412 0.047896177 0.12302883 0.028593503 -0.16660029 -0.05265714 -0.07815834
0.09646489 -0.10505108 -0.104719535 0.09791539 0.05696409 0.06467934 -0.030167114 0.005615659
0.024534184 0.05149663 0.04047179 -0.022543337 0.10552057 0.031575233 0.035949472 0.13092706
-0.107315734 -0.07516431 0.113979675 0.103016846 -0.030541698 0.0144638335 0.029892452 -0.001022703
-0.067281894 -0.0040516662 0.008410108 -0.072246164 -0.043153077 -0.09865899 0.011322973 -0.050025623
-0.0054495353 -0.04011035 0.0443641 0.1489808 -0.07423478 0.033135157 0.004963408 -0.0049773143
-0.06400087 0.05076692 0.035366535 0.17866479 0.0005223119 0.025770333 0.1424595 -0.08593567
0.030342884 -0.08231764 -0.0123353135 -0.076473035 -0.16047908 0.008548247 0.020718228 -0.11682475
0.12819836 0.02535828 -0.00086997607 0.04816401 0.06825482 -0.03838066 0.06955962 -0.028612215
0.120834574 -0.13212004 0.011590413 0.1276899 -0.021711381 -0.087513745 -0.027516779 0.13939787
-0.14499371 -0.049175244 0.053057823 0.11374356 -0.02010139 -0.039023347 0.014820171 -0.02701015
-0.023994679 0.08876826 0.038357716 -0.028463457 0.03597047 -0.19417652 -0.15231538 -0.04488115
-0.04958194 0.041858405 0.13078542 -0.1125435 -0.045656916 0.24075928 -0.17607991 0.06675776
-0.03446157 -0.09531384 0.12022745 -0.06476709 -0.045318946 -0.005210001 0.099345334 0.05380552
-0.020869756 -0.103926584 0.11751357 0.0403398 -0.102158464 0.03274229 -0.057283092 -0.084804654
-0.0072261277 0.055464365 -0.15913796 -0.071095385 -0.08153399 -0.04446874 -0.018611938 -0.07319102
-0.012395935 0.012064989 0.030340707 0.05888953 0.0043664617 0.11103343 -0.05248635 -0.047133047
00000000: 586c 193d bea2 ac3d 171a 8e3d e35e 0dbd
00000010: c51a 91bb dbeb ba3b 4072 653d 2a73 00bc
00000020: ac11 0a3e 06ee ff3c fbd9 e93c 7324 1cbe
00000030: 7c0c e83d deee cf3c 9ab7 81bd 225b 743d
00000040: 55b6 12bd 6030 82bd 4f50 febc 0516 d93d
00000050: 4954 e63d 0ed0 d43d 5535 5bbc d89f a8bd
00000060: 448e 63bc 4811 acbd ff9b 1dbe 70f8 81bd
00000070: 2462 b03d 7f94 bcbd 9b01 e33d a38c 11bd
00000080: d972 a73d 21ba 053d be2b e5bb 2d36 8cbd
00000090: 5e5f 4fbc 8aca f93d 6920 e5bd b8f3 19bd
000000a0: 78dd b13d cbb8 9e3d ea2c 5cbc f07e 1e3d
000000b0: 710a 003e 146c c63d 9b67 f93d 8cb7 993c
000000c0: 8f90 203d 43c5 aebd 5c43 433c c8bb ca3d
000000d0: c137 53bd 311b 1abc f930 85bd 6161 be3d
000000e0: e0f0 723d 2b68 5dbd fc8e 903d a7e2 343d
000000f0: 1a49 a53d 159d 003d beb7 a83d ae00 ae3d
00000100: 96b5 96bb 73a1 b63d 2d9f 8abd 9afc b83d
00000110: a8a6 133d af9b 0d3d 4458 323b 3e78 58bd
00000120: 2de9 523d 07d4 183d 265b 913d 4ba4 953d
00000130: 8932 85bb fcba 68bc de9f d2bd 47e8 97bd
00000140: 0668 72bd 598f 8bbd 27e9 68bd c044 bb3c
00000150: 6cf0 813d 4245 fe3c d175 8d3d bfd7 32be
00000160: 2e78 883d d36f 2e3e 09e1 b93d c173 d4bc
00000170: 94e5 11bc 7e98 af3c 7da7 24bd 435b 0a3d
00000180: 8a66 74bd 6f16 ba3d 9990 4fbd f401 853d
00000190: 86be fd3d cdaa a23d 524f 073d ca47 f7bc
000001a0: ea05 143e d1d1 c2bc a9a8 a0bd 306f f0bd
000001b0: 827b 8bbd a163 78bd f376 b6bc 5ea4 c6bd
000001c0: ad0f 7dbd a40a a33d 160c 83bc 85a7 b93d
000001d0: 3eef 74bd 3d19 973d 7aff e23d e248 8e3d
000001e0: a941 edbd 9692 c9bd c82e 443d 8af6 fb3d
000001f0: ec3c ea3c 4499 2abe 03af 57bd 7b11 a0bd
00000200: 628f c53d 0525 d7bd 3277 d6bd dd87 c83d
00000210: 2d53 693d 9a76 843d 0621 f7bc 9003 b83b
00000220: eafb c83c 21ee 523d bfc5 253d ceac b8bc
00000230: 2b1b d83d 0855 013d c13f 133d be11 063e
00000240: 5ac8 dbbd bfef 99bd 2d6e e93d 7ffa d23d
00000250: 9532 fabc b7f9 6c3c 04e1 f43c 380c 86ba
00000260: 17cb 89bd d7c3 84bb 8dca 093c ccf5 93bd
00000270: 48c1 30bd b90d cabd fe83 393c abe7 4cbd
00000280: 0492 b2bb c04a 24bd 21b7 353d 6c8e 183e
00000290: 6808 98bd bbb8 073d 16a4 a23b bd18 a3bb
000002a0: e312 83bd f9f0 4f3d 80dc 103d e7f3 363e
000002b0: c2eb 083a 4e1c d33c e7e0 113e 0aff afbd
000002c0: a491 f83c 2796 a8bd 0e1a 4abc e59d 9cbd
000002d0: a154 24be f20d 0c3c 46b9 a93c d141 efbd
000002e0: 6e46 033e 2bbc cf3c 1b0f 64ba a047 453d
000002f0: 2fc9 8b3d 0a35 1dbd 4675 8e3d 2a64 eabc
00000300: 1e78 f73d 7a4a 07be b7e5 3d3c 24c1 023e
00000310: 11dc b1bc 683a b3bd de6a e1bc 51be 0e3e
00000320: 3b79 14be fb6b 49bd 2953 593d 62f2 e83d
00000330: acab a4bc f2d6 1fbd 4dd0 723c 6444 ddbc
00000340: 7d90 c4bc 22cc b53d fb1c 1d3d 322c e9bc
00000350: c655 133d 36d6 46be 90f8 1bbe 4cd5 37bd
00000360: 6f16 4bbd b873 2b3d 9dec 053e 357d e6bd
00000370: bf02 3bbd 9a89 763e 4b4e 34be 4bb8 883d
00000380: 9327 0dbd e733 c3bd cf39 f63d 9ca4 84bd
00000390: 5ca0 39bd a8b8 aabb 9175 cb3d 2d63 5c3d
000003a0: 0df7 aabc 76d7 d4bd f4aa f03d 593b 253d
000003b0: 7538 d1bd c81c 063d ada1 6abd 10ae adbd
000003c0: 27c9 ecbb 9a2e 633d 10f5 22be 759a 91bd
000003d0: 4bfb a6bd da24 36bd 1078 98bc 2ce5 95bd
000003e0: 5218 4bbc 3bac 453c 138d f83c 2636 713d
000003f0: 8914 8f3b 7f65 e33d edfb 56bd 950e 41bd

net.3.bias f4 [96]
0.01762725 0.0003872582 0.07266603 -0.07221219 0.035153825 -0.06442231 -0.085387826 0.07986464
-0.026919361 0.091742456 0.008113118 -0.103610724 0.015867805 -0.085235566 -0.051540054 0.07700741
0.05260362 -0.043357655 0.0042291563 0.042540044 0.012843468 0.09656558 0.08400226 -0.045995127
0.065242514 0.08086131 0.016112516 0.0641325 -0.06616769 0.0426387 0.06399325 -0.07628632
0.04142822 0.057715725 0.07942167 -0.06949767 0.00624009 -0.021554204 -0.076830074 -0.06307302
-0.039953258 0.09505474 -0.06160178 0.0042301454 -0.06932676 -0.06656533 0.058286116 -0.063011415
-0.03137046 0.09030082 0.0759118 -0.005359714 0.015444719 -0.07073442 0.06334997 -0.051789083
0.018538281 -0.011823717 0.030071836 0.017099757 -0.09281517 -0.054971427 -0.01081162 0.008167176
0.062386032 0.07380123 -0.012633683 0.052062243 -0.022597577 0.047921684 -0.069682226 -0.030590298
0.021623466 -0.0091540245 -0.003985923 0.08397754 -0.04645969 -0.004676247 -0.045488697 -0.041963443
-0.061093066 -0.050927676 -0.00032846013 -0.043959603 -0.06028651 0.041609332 -0.05842633 -0.07989505
-0.035354417 0.07356554 -0.079250515 0.049533833 0.074245445 -0.09201017 -0.085989006 0.08044109
00000000: 0667 903c ea08 cb39 edd1 943d fce3 93bd
00000010: 75fd 0f3d d8ef 83bd d0df aebd 1390 a33d
00000020: fe85 dcbc 78e3 bb3d e2ec 043c dc31 d4bd
00000030: 33fd 813c fc8f aebd aa1b 53bd 10b6 9d3d
00000040: e576 573d cc97 31bd bc94 8a3b 783e 2e3d
00000050: 696d 523c 2dc4 c53d 6009 ac3d 6365 3cbd
00000060: de9d 853d 9d9a a53d 65fe 833c e657 833d
00000070: ed82 87bd eba5 2e3d e50e 833d 013c 9cbd
00000080: a3b0 293d 5367 6c3d d4a7 a23d cb54 8ebd
00000090: ab79 cc3b 7192 b0bc 1659 9dbd 6d2c 81bd
000000a0: 07a6 23bd 0fac c23d 2652 7cbd 089d 8a3b
000000b0: 30fb 8dbd 6753 88bd 6cbd 6e3d 210c 81bd
000000c0: 507e 00bd a3ef b83d a577 9b3d 8aa0 afbb
000000d0: d90b 7d3c 35dd 90bd a1bd 813d ca20 54bd
000000e0: 98dd 973c 43b8 41bc 3659 f63c ca14 8c3c
000000f0: e115 bebd b829 61bd 3923 31bc 9ecf 053c
00000100: 7f88 7f3d 1925 973d 82fd 4ebc 383f 553d
00000110: 8e1e b9bc 8749 443d 8eb5 8ebd 8198 fabc
00000120: b223 b13c c3fa 15bc 589c 82bb 6bfc ab3d
00000130: 844c 3ebd 343b 99bb 5b52 3abd dce1 2bbd
00000140: b93c 7abd 8a99 50bd 2c35 acb9 fc0e 34bd
00000150: fdee 76bd 8c6e 2a3d 7350 6fbd 04a0 a3bd
00000160: cbcf 10bd 88a9 963d 184e a2bd fde3 4a3d
00000170: ff0d 983d d46f bcbd 011b b0bd 4cbe a43d

net.6.weight f4 [6, 96]
0.028527696 0.15921102 -0.07044605 0.06451369 0.02539557 -0.13240707 -0.058953777 0.041510522
0.21052018 -0.013931462 0.11070548 -0.029670125 -0.1291996 0.07225013 0.025011603 0.03940023
0.13501498 -0.13751082 0.13684194 -0.115388125 -0.02058251 0.051941086 -0.061959554 -0.0137887485
0.04033919 -0.080507815 0.20103751 -0.13359077 0.016659219 0.0831824 -0.003386123 -0.09991716
-0.11304186 -0.01105914 -0.079205796 0.08144376 0.13748756 0.10258455 0.10816982 0.11174404
0.22435726 -0.106416896 0.015040467 -0.032806274 0.01288807 0.02456575 -0.17622775 -0.11411637
0.08954953 0.15144071 -0.058296885 -0.06347877 0.08946312 -0.18530959 -0.051781863 -0.054455563
0.012037266 0.05098773 0.020899188 -0.15512358 0.050759565 0.08977837 -0.116952375 0.01627596
-0.07649811 -0.04500607 -0.27217337 -0.0135890925 0.046962123 -0.05512063 -0.03335075 0.039372105
-0.12753133 -0.096273616 0.04347033 0.069545805 0.011880425 0.022135915 -0.009295954 0.09074501
-0.13192454 -0.023473246 -0.05288834 0.12925625 0.084248185 0.024872987 -0.07746819 -0.06757395
-0.07987184 0.12915303 0.11012454 0.04595716 0.11004161 -0.070261486 -0.0319954 -0.15544966
-0.069215134 -0.10015035 0.08868805 0.034925032 -0.086647145 -0.14401528 -0.18105674 -0.10502332
-0.13995652 0.08315971 0.021668222 -0.015546423 0.013892053 0.018567838 -0.0655361 -0.052128986
-0.15114218 -0.005250057 0.009570121 -0.17630656 -0.016376132 -0.03962656 0.11731202 0.08640491
0.03131329 0.02957899 -0.12734927 0.1455663 0.032476198 0.029358214 -0.1519699 0.04761188
0.06008755 -0.051633876 -0.09643592 0.09444915 -0.03580797 -0.011398199 0.09879136 0.04470059
-0.0035906178 -0.018444149 0.06801966 0.016981302 0.07065341 0.032727614 -0.024862614 0.13609193
0.090935856 0.047002785 0.13295601 0.17565426 -0.058321126 -0.10376371 0.039458722 0.037144974
0.01638537 0.171631 -0.16986965 -0.15035036 0.07413435 0.069042906 0.029071564 0.06691643
0.16834716 0.101606786 -0.11695264 0.025337718 0.03004218 -0.06087607 0.03421392 0.029897282
0.0115859145 0.024130026 -0.051448613 -0.06273611 -0.036347743 0.119872235 0.03749032 -0.039404746
0.10521699 -0.0031754533 -0.20703293 -0.011669981 0.048538722 0.030981097 -0.03952389 0.022002045
-0.21784107 0.046232212 0.048186466 0.002279523 0.0601138 -0.10017462 0.02934604 -0.06178905
0.07285089 -0.080553286 -0.06901717 0.0056473496 0.09064128 0.11286418 0.16988833 -0.0067248414
-0.029271226 0.06368304 -0.09014007 -0.039849136 0.068004936 -0.005195732 0.013939613 -0.05167711
-0.018507464 0.02336862 -0.12608631 0.19525596 0.07274818 -0.0063518495 0.010915266 -0.062185615
-0.070694804 -0.037502456 -0.02455352 -0.08363344 -0.029363893 -0.099505946 0.24510507 -0.025289081
0.06610758 0.013460188 0.19672357 -0.050410282 -0.054856922 0.0603699 -0.06467876 -0.03210705
-0.13948959 0.081664994 -0.15256327 0.008729611 -0.090057164 -0.033634417 0.14906085 0.04757352
-0.11908351 -0.029636748 -0.1019475 -0.10898164 -0.04919906 0.18333155 0.09648207 0.056926753
-0.0060099782 0.0038520407 0.09518401 0.06961014 -0.062257104 -0.110987544 0.066746555 -0.015034192
00000000: eab2 e93c 3708 233e 0546 90bd c11f 843d
00000010: 5f0a d03c b895 07be 8479 71bd f006 2a3d
00000020: 9a92 573e c940 64bc 8eb9 e23d c30e f3bc
00000030: e64c 04be e0f7 933d 22e5 cc3c 2362 213d
00000040: 5e41 0a3e a3cf 0cbe 4b20 0c3e 9c50 ecbd
00000050: a79c a8bc 2dc0 543d 4dc9 7dbd 34ea 61bc
00000060: b53a 253d 48e1 a4bd c7dc 4d3e 05cc 08be
00000070: ea78 883c 895b aa3d b8e9 5dbb 5ea1 ccbd
00000080: 7e82 e7bd 6531 35bc a636 a2bd fccb a63d
00000090: 8ac9 0c3e d917 d23d 2388 dd3d 0fda e43d
000000a0: e9bd 653e 1af1 d9bd 4a6c 763c df5f 06bd
000000b0: 7c28 533c 1d3e c93c 0c75 34be d8b5 e9bd
000000c0: be65 b73d 4613 1b3e b7c8 6ebd 2801 82bd
000000d0: 7138 b73d ccc1 3dbe 3819 54bd cc0c 5fbd
000000e0: f437 453c 83d8 503d c634 ab3c b7d8 1ebe
000000f0: 43e9 4f3d b9dd b73d ba84 efbd 2955 853c
00000100: 0bab 9cbd 4958 38bd 4f5a 8bbe c9a4 5ebc
00000110: 5b5b 403d 2bc6 61bd cc9a 08bd a544 213d
00000120: 9397 02be 1a2b c5bd f20d 323d 086e 8e3d
00000130: 1da6 423c 6156 b53c 0f4e 18bc 85d8 b93d
00000140: 3a17 07be f74a c0bc 72a1 58bd c05b 043e
00000150: 508a ac3d 6fc2 cb3c a4a7 9ebd 3664 8abd
00000160: d993 a3bd b140 043e fa88 e13d 933d 3c3d
00000170: 7f5d e13d 41e5 8fbd 9c0d 03bd 322e 1fbe
00000180: aac0 8dbd a01b cdbd 15a2 b53d 8d0d 0f3d
00000190: 0f74 b1bd be78 13be f066 39be 7716 d7bd
000001a0: c350 0fbe a34f aa3d 8e81 b13c 6db6 7ebc
000001b0: 7e9b 633c 941b 983c ca37 86bd 3485 55bd
000001c0: 04c5 1abe ac08 acbb ffcb 1c3c b589 34be
000001d0: 3d27 86bc 764f 22bd 4941 f03d 0ff5 b03d
000001e0: 5d42 003d a34f f23c d967 02be 550f 153e
000001f0: c305 053d a380 f03c ff9d 1bbe ad04 433d
00000200: 5d1e 763d 0b7e 53bd 3280 c5bd 8e6e c13d
00000210: 61ab 12bd 83bf 3abc 2053 ca3d f717 373d
00000220: 9250 6bbb 2f18 97bc e44d 8b3d 5f1c 8b3c
00000230: bcb2 903d 640d 063d aeac cbbc af5b 0b3e
00000240: 943c ba3d fe85 403d 9f25 083e b6de 333e
00000250: 22e2 6ebd 1182 d4bd 789f 213d 5425 183d
00000260: 9d3a 863c 09c0 2f3e 4ff2 2dbe 72f5 19be
00000270: c0d3 973d 5e66 8d3d 7d27 ee3c 7b0b 893d
00000280: 3363 2c3e 3817 d03d de84 efbd 0c91 cf3c
00000290: 051b f63c 3059 79bd e523 0c3d 25eb f43c
000002a0: d9d2 3d3c 55ac c53c c8bb 52bd ca7b 80bd
000002b0: 5fe1 14bd 937f f53d 738f 193d df66 21bd
000002c0: 017c d73d 441b 50bb 7100 54be 7333 3fbc
000002d0: 8ad0 463d 12cc fd3c cde3 21bd a23d b43c
000002e0: bb11 5fbe fd5d 3d3d 2c5f 453d 0d64 153b
000002f0: e339 763d 5a28 cdbd 1b67 f03c 8416 7dbd
00000300: d932 953d 1ff9 a4bd e058 8dbd 670d b93b
00000310: 23a2 b93d 5625 e73d 35f7 2d3e 0f5c dcbb
00000320: 36ca efbc 416c 823d 5b9b b8bd d938 23bd
00000330: 2c46 8b3d f640 aabb f962 643c 61ab 53bd
00000340: f79c 97bc 8c6f bf3c c51c 01be 2ef1 473e
00000350: fffc 943d 2d23 d0bb f2d5 323c 58b6 7ebd
00000360: 70c8 90bd 2d9c 19bd 7724 c9bc 0248 abbd
00000370: 8c8c f0bc c6c9 cbbd d3fc 7a3e 0c2b cfbc
00000380: 6963 873d 1f88 5c3c e771 493e 037b 4ebd
00000390: a7b1 60bd 6e46 773d 4c76 84bd af82 03bd
000003a0: 5cd6 0ebe fa3f a73d 8c39 1cbe a406 0f3c
000003b0: e46f b8bd 3ec4 09bd 68a3 183e 74dc 423d
000003c0: 0ee2 f3bd c4c8 f2bc dac9 d0bd c431 dfbd
000003d0: f484 49bd 44bb 3b3e 6498 c53d 072c 693d
000003e0: 5aef c4bb 8572 7c3b d6ef c23d c38f 8e3d
000003f0: 4e01 7fbd 704d e3bd 6bb2 883d f951 76bc

net.6.bias f4 [6]
0.022077702 -0.08744384 -0.013018264 -0.01554519 -0.040556338 -0.08973807
00000000: 4cdc b43c c215 b3bd 8f4a 55bc 41b1 7ebc
00000010: 671e 26bd 98c8 b7bd
